experiments/quick_test_model.pth (torch, 39301 bytes, 16 tensors)

conv1.weight f4 [8, 3, 7, 7]
000000 ca 9c 6b 3e 42 b9 9d 3d e6 6d 3e 3d f4 60 fb bd
       0.23009029 0.07701351 0.046491526 -0.12274352
000010 a7 2c 2e be 41 e7 f0 bd 55 0d 86 3d 3c 88 1d 3e
       -0.17009221 -0.11762858 0.06545512 0.15384
000020 98 74 e6 39 7c 26 83 bc b2 a6 2e bd fd b9 49 bd
       0.00043955888 -0.016009562 -0.04263944 -0.049249638
000030 03 b4 81 3d ff da 44 3e 06 9c 58 3e 52 29 e1 3d
       0.06333163 0.19224165 0.21153268 0.10994209
000040 09 5f 45 3c bb da 8f bd 60 66 0c bd 1a c4 03 3d
       0.012046584 -0.070241414 -0.03427732 0.03216944
000050 7b d8 5b 3e 67 86 51 3e 54 71 90 3d b0 99 9e 3d
       0.214693 0.20461427 0.070528656 0.07744157
000060 8e 23 f0 bc 2c b8 9c 3c 6e f0 01 3e 06 88 83 3e
       -0.029313829 0.019130789 0.12689373 0.25689715
000070 26 cc 2f 3e d6 21 5e 3c 15 84 ac 3d 2e 5b 67 3d
       0.1716772 0.013557872 0.0842363 0.05648344
000080 a8 76 31 3e 96 e1 20 3e d7 b6 98 3e 4c 35 2d 3e
       0.1733042 0.15711054 0.29826996 0.16914862
000090 2f 26 7c 3d 6b bc 2e 3c 65 3b f5 bc 49 65 59 3d
       0.061559852 0.0106650395 -0.029935548 0.05307511
0000a0 eb f3 d6 3d 09 fa e4 3d 54 c8 23 3e 82 8a 1b 3d
       0.104957424 0.11180503 0.15994388 0.03797389
0000b0 9b 29 4a bc 40 db b4 3d d5 07 08 3d 79 25 77 3d
       -0.012339021 0.08830881 0.033210594 0.06033847
0000c0 ed be 10 3e ef f4 0b 3e f1 5a 4d 3d 6d 4e 64 bd
       0.14135332 0.13667654 0.050135557 -0.055738855
0000d0 cb a0 d1 bd bd 00 32 be 32 5b 0b be 56 ba 1a 3e
       -0.10235747 -0.17383094 -0.13609007 0.15110144
0000e0 82 d7 47 3e ef c0 85 3d 5c cc ac 3d f8 9f 1c bd
       0.19515803 0.0653094 0.08437416 -0.038238496
0000f0 6e f7 d4 bd 38 b0 20 3b b8 6a 26 3e eb 3f 03 3e
       -0.10398756 0.0024519097 0.16251647 0.12817352
000100 32 a9 78 3d cf 3c bf 3d d6 7e 2f bb 02 c6 10 bd
       0.060708232 0.0933777 -0.002677848 -0.035345085
000110 99 ee 5e 3d f8 10 79 3e c6 61 50 3e 4f e3 33 3e
       0.054426763 0.2432288 0.20349798 0.1756718
000120 5c 17 73 3b 7d 77 ab 3c 25 77 96 3d 09 df 96 3d
       0.003709278 0.020931 0.07346944 0.07366759
000130 a9 c5 7b 3e d9 e4 73 3e a2 af 0f 3e 70 1e ba 3d
       0.2458712 0.23817767 0.14031842 0.09087837
000140 a4 8a ca 3d 91 b1 31 3e 9f f2 3a 3e 40 f9 8d 3e
       0.09889725 0.17352892 0.18256615 0.27729225
000150 7a 1d 83 3e 6b 04 d6 3d 5b 56 32 3d 07 27 80 3d
       0.25608426 0.104500614 0.043539386 0.06257444
000160 c6 73 9c 3d fb c8 96 3d 90 90 2f 3e ef 44 24 3e
       0.076392695 0.07362553 0.1714499 0.16041921
000170 61 c3 e0 3c d0 c4 b0 3d ac 3c b7 3d 69 e9 88 3d
       0.027436914 0.08631289 0.08947119 0.066851445
000180 3c b7 a9 3d 31 7d 30 3e 4a a7 29 3e ca 5b 14 bc
       0.08286902 0.17235257 0.16567722 -0.009055087
000190 a4 93 03 3a 38 e9 a8 bd 2c 3d ad bd ee ca ed bc
       0.00050192536 -0.08247608 -0.08458933 -0.029027428
0001a0 63 48 da 3c 36 a9 09 3e 0f 70 de 3d 4c ba 55 3d
       0.026645845 0.13443455 0.10861217 0.05217962
0001b0 55 6b 10 3d 9a d1 7d 3b 39 1c a0 3d 83 b5 33 3e
       0.03525861 0.0038729669 0.07817883 0.1754971
0001c0 fd 25 40 3e 6e b5 f6 3c 3b 0f 8b 3d b8 37 3a 3d
       0.18764491 0.03011581 0.06790014 0.045463294
0001d0 6f b5 14 bd 2a 44 bd 3c 3f 24 64 3e 45 ba 49 3e
       -0.03630584 0.023103792 0.22279452 0.19699962
0001e0 41 c4 da 3d 78 a7 d9 3d 8b 48 61 3d d1 72 04 3d
       0.10681964 0.10627645 0.055000823 0.03233606
0001f0 64 d9 91 3d 36 de 64 3e 91 c6 80 3e 37 0f 98 3d
       0.07121542 0.22350392 0.25151494 0.07424777
000200 36 4f 18 3e d4 55 ed 3d f8 c9 21 3e 96 06 2c 3e
       0.14873967 0.11588636 0.15799701 0.16799387
000210 3d d4 86 3e f4 8f 89 3e eb ed 18 3e 62 99 a1 3d
       0.263338 0.2686764 0.14934509 0.078905836
000220 da a5 91 3d e2 e2 4d 3d 4e 08 98 3d c5 bb 5c 3e
       0.07111712 0.0502652 0.07423459 0.21556003
000230 a9 86 1b 3e f9 87 e9 3d a4 fb 5c 3d d3 d1 8d 3d
       0.15188088 0.11402888 0.05395092 0.069247864
000240 a7 63 09 3d 98 ab d1 3d 90 ec 00 3e 1c ec 9c bd
       0.0335423 0.10237807 0.12590241 -0.07662222
000250 5f d2 81 bd f8 39 5e bd 52 c6 f1 3d 0f f0 24 3e
       -0.06338953 -0.054254502 0.11805405 0.161072
000260 f2 24 a1 3e 12 34 f9 3d 67 c6 46 bd 28 34 01 be
       0.314735 0.12168135 -0.048529055 -0.12617552
000270 07 32 bb bc 06 6c 98 3d eb 71 cb 3d 5d 80 3a 3e
       -0.022851003 0.07442479 0.099338375 0.18213029
000280 df 89 df 3d 47 14 84 bd 77 a3 32 be ff c3 37 bd
       0.10914969 -0.0644918 -0.1744517 -0.04486465
000290 48 99 86 3a 4c 11 b3 3d 50 b0 54 3e 3f b9 34 3e
       0.001026907 0.087435335 0.20770383 0.17648791
0002a0 73 30 86 3c bb 4c eb bc 9e 2c fe 3b 29 99 83 bd
       0.016380524 -0.028723111 0.0077567836 -0.06425697
0002b0 fb 41 1a bd 76 00 73 3d 4a fa 45 ba 4f e5 b2 3c
       -0.03766058 0.05932661 -0.00075522496 0.021837858
0002c0 92 42 ea 3d 3e 37 05 be f2 59 fe bd 11 9e fa bd
       0.114384785 -0.13009354 -0.124194995 -0.1223718
0002d0 df b5 a5 bb f4 89 57 3d 50 a4 92 3d 8f 03 96 bc
       -0.005057081 0.052621797 0.07160246 -0.018312244
0002e0 f2 62 c4 bd c5 0a 7b bd 95 9b 1e be d1 13 38 be
       -0.09589185 -0.061289568 -0.15489037 -0.1797631
0002f0 4f 29 03 be df 73 38 3e ee de a8 bc 00 bd e4 bd
       -0.12808727 0.18012951 -0.020614114 -0.111688614
000300 71 74 cc bd 8b 73 39 bd 47 64 1d be db fa 02 be
       -0.09983147 -0.045276206 -0.15370284 -0.12791006
000310 8f fa d6 bc a5 e5 86 bd 2d bd 89 3a ea 90 30 3e
       -0.026242523 -0.0658677 0.0010508649 0.1724278
000320 ee ab 7d 3e 57 24 9b 3e 13 03 3e 3e a2 be 7a bd
       0.24772617 0.30301163 0.1855586 -0.061216958
000330 7f 02 fe bd e7 1e e4 bd fb be 48 bd 45 9e 32 3e
       -0.1240282 -0.11138707 -0.04901026 0.17443188
000340 4a 28 81 3e cb 86 66 3e c3 3b c5 bc ed 77 e3 bd
       0.2522605 0.22512357 -0.024076348 -0.111068584
000350 0c 91 a5 bd 31 af a9 3c 2e 8e cb 3d a5 3b fe 3d
       -0.08084306 0.02071342 0.09939228 0.1241372
000360 86 7d 3f 3e bc 92 20 3e e9 03 d2 bc 44 de b7 bd
       0.18700227 0.15680975 -0.02563663 -0.08977941
000370 ed db af bd 5e f6 e2 3a 96 dd 0c ba 10 34 b9 3d
       -0.085868694 0.0017315855 -0.0005373595 0.09043133
000380 5e 3c e3 3d 89 37 00 bd 20 73 97 bd 68 e5 c6 bd
       0.110954985 -0.031302962 -0.07395005 -0.097117245
000390 8c 16 0b be b2 bf 21 bc cf 07 d2 bc a9 20 31 3e
       -0.1358282 -0.009872364 -0.025638489 0.17297615
0003a0 f5 2e b6 bc 95 f6 0c bd 11 ca e9 bd 82 af a8 bd
       -0.022239188 -0.034414846 -0.11415494 -0.082366005
0003b0 6f fd 27 be 3a eb 54 bd c0 08 8f 3d 20 fd 94 bb
       -0.16405271 -0.051982142 0.06984091 -0.0045467764
0003c0 55 f7 f0 bd f1 de b1 bd ab 79 8c bd f9 92 00 be
       -0.11765925 -0.08685101 -0.06859144 -0.12556066
0003d0 3d ea ae bd 1d 15 0c be 17 67 c2 bd 94 ae bd 3d
       -0.08540771 -0.13679929 -0.09492319 0.09261814
0003e0 5a 51 1e 3e d9 c6 64 3e db 25 74 3e 65 93 83 3e
       0.1546072 0.2234148 0.23842566 0.2569839
0003f0 1c 38 0c be 41 e8 4f bd d5 e7 98 bc 2a 2e 8a 3d
       -0.13693279 -0.050758604 -0.018665234 0.06747086

conv1.bias f4 [8]
000000 70 8f f1 b6 60 7b 0c 36 55 5a f1 b7 60 d5 18 37
       -7.199058e-06 2.093344e-06 -2.8771503e-05 9.109586e-06
000010 dc a9 d3 35 e3 fe 66 b9 9d 77 c4 38 f6 7a aa b7
       1.5770161e-06 -0.00022029462 9.368288e-05 -2.0322837e-05

bn1.weight f4 [8]
000000 3e 6d 69 3f 05 30 93 3f f9 7a 82 3f 40 09 70 3f
       0.91182315 1.1499029 1.0193778 0.93764114
000010 8d ee 3b 3f f9 0c 81 3f 99 58 90 3f 8d e0 75 3f
       0.73410875 1.0082084 1.1277038 0.9604576

bn1.bias f4 [8]
000000 4e 34 99 be f3 03 19 bf 4a aa 01 be c4 e4 0e be
       -0.29922718 -0.5977165 -0.12662616 -0.13954455
000010 ac a8 b1 be 8b cb 93 be 70 9f 18 be 1d 25 1c be
       -0.34699 -0.28866228 -0.1490457 -0.15248533

bn1.running_mean f4 [8]
000000 ee 89 d0 3f 0f 54 eb bc 27 bc 30 3e 48 df ca 3f
       1.6292093 -0.028726606 0.17259274 1.584939
000010 7d 19 72 3f 6f 66 92 3e f3 40 f8 bc d2 62 a4 3f
       0.9457014 0.28593776 -0.030304408 1.2842658

bn1.running_var f4 [8]
000000 c8 84 10 41 8f d7 8a 3f 49 93 0e 40 42 d1 0f 41
       9.032417 1.0847033 2.2277396 8.988588
000010 49 d1 50 40 a2 19 ea 3f ad 09 a8 3f b5 ec c3 40
       3.2627738 1.8289073 1.3127953 6.122645

conv2.weight f4 [16, 8, 7, 7]
000000 f5 1f 9f bd a1 87 27 bc 02 13 30 bd 7d ef c8 bc
       -0.07769767 -0.010225208 -0.042986877 -0.02452826
000010 46 13 be bc b6 23 86 bd 7a da a4 bd 96 f3 19 be
       -0.02320255 -0.0654978 -0.080494836 -0.15034327
000020 ca f3 f2 3a 2d 2c 64 bc 9d 9e 0b 3c e9 6f a7 bd
       0.001853579 -0.013926548 0.008521703 -0.08175642
000030 b3 b8 d8 bd e1 24 9b bd c6 87 d5 bd 58 9f 9d bc
       -0.105821036 -0.075753935 -0.10426287 -0.01924102
000040 52 01 aa bd 84 0d 81 bd 06 66 0b be a7 f7 12 be
       -0.08301033 -0.06301406 -0.13613138 -0.14352284
000050 db 94 3c be 0d 77 2b be ae 9e 2b be 7c 36 80 bc
       -0.18416159 -0.16744633 -0.1675975 -0.01565098
000060 0b e7 31 bd cd b2 c7 bd 60 bf c3 bd 64 15 45 be
       -0.04343323 -0.097509004 -0.09557986 -0.19246441
000070 a0 df 54 bd 24 e0 b6 bd bc bf 61 bd 0e 2f a7 bc
       -0.051971078 -0.0892947 -0.055114493 -0.02040818
000080 e6 70 62 bd c2 4a 93 bd 35 ee df bd dc 74 03 bd
       -0.05528345 -0.07191993 -0.10934106 -0.032093868
000090 f4 96 b8 3c cf 67 c2 bd 21 b5 bf bd 08 56 d4 bd
       0.022532918 -0.09492456 -0.093607195 -0.10367972
0000a0 45 f2 33 bd 0e 9f cc bd 37 e2 9d bd 10 42 ae 3c
       -0.043932218 -0.09991275 -0.07709163 0.021271735
0000b0 eb 89 f2 3c 5f 95 a4 bd 64 8f 8a bd e0 f2 43 bd
       0.02960678 -0.08036303 -0.06765631 -0.047839046
0000c0 15 a7 34 bd e5 9d 03 be 24 18 bb bd e7 4f 5e bd
       -0.044104654 -0.128532 -0.09135464 -0.05427542
0000d0 8a 52 73 bd af 71 da bd 8f bf b7 bd 14 ea f6 bd
       -0.059404887 -0.10666215 -0.08972084 -0.120563656
0000e0 f8 6c d0 3c 97 b6 ae 3c c0 db 7b bc b9 7d a1 bd
       0.025442585 0.0213273 -0.015372217 -0.07885308
0000f0 d2 6d 24 3d f7 a0 20 be 1d 09 e8 bd 55 45 90 3d
       0.040143795 -0.15686403 -0.11329863 0.07044474
000100 d1 d2 9d bd be ec f3 3c 23 57 58 3c c7 e6 02 bd
       -0.07706226 0.029775973 0.013204369 -0.031958368
000110 75 ac 21 bd 1c 45 27 be d1 9e 3a bc d5 8f d4 3c
       -0.03947111 -0.16334957 -0.011390404 0.02594749
000120 bc 62 f2 3c 30 81 b1 bc a6 c1 5e bb 2b 3d bb bc
       0.029588096 -0.021668047 -0.0033989935 -0.022856316
000130 06 94 5c 3c 14 48 dd 3c 69 e6 3f bd 2d 08 11 bd
       0.013463026 0.027011909 -0.046850596 -0.035408188
000140 02 c8 36 be e9 72 23 bd e0 48 f3 bd 22 94 85 3c
       -0.17849734 -0.03990451 -0.11879134 0.016305987
000150 e4 93 9a bd 4a 15 0b be 53 e3 ec bc 9b 78 a2 bd
       -0.07547739 -0.1358234 -0.02891699 -0.0793316
000160 37 72 f1 3a 02 4d ec 3c 65 bd b0 bd 23 3a 89 bd
       0.001842088 0.028845314 -0.08629874 -0.06700542
000170 22 49 f3 bd 58 86 d5 bd da 3d 8d bd bd 12 f1 bc
       -0.11879183 -0.10426015 -0.06896563 -0.02942788
000180 a6 ce 97 bd 44 23 d5 bd cb 40 c7 3c e3 26 e2 bd
       -0.07412462 -0.10407117 0.024322888 -0.11042573
000190 b4 ba 25 bc 33 d0 b4 bc bc 07 ab 3b b7 41 08 bd
       -0.010115314 -0.022071933 0.005219428 -0.033265796
0001a0 38 df 30 3d bf 36 e3 3c 44 8a 1f ba ff 24 88 bd
       0.043181628 0.027736066 -0.0006085972 -0.066476814
0001b0 4c bf 9c bd be e1 b9 bb 4c 5c ca 3d 70 4c ae 3b
       -0.076536745 -0.0056726625 0.098808855 0.0053191707
0001c0 c5 d7 3d 3e 56 4c 24 3d 07 1b 8c 3d 7f 0e a4 3c
       0.18539341 0.040111862 0.068410926 0.020026444
0001d0 a9 84 85 3c e5 12 7d 3d 57 07 81 3d fd 30 54 bd
       0.016298609 0.061785597 0.06300228 -0.05180453
0001e0 72 65 eb bc a9 f7 e4 3d 55 8b 51 3d 48 10 0f 3e
       -0.028734896 0.1118005 0.051158268 0.13971055
0001f0 01 92 a9 3d 17 b4 db bc 1d 73 8d bd fa c1 31 3c
       0.08279801 -0.026819272 -0.06906722 0.01084947
000200 68 14 af 3d f0 52 fb 3d 79 8a 8c 3c ce be 02 bb
       0.08548814 0.122716784 0.017155873 -0.0019950154
000210 69 00 19 3d 73 49 e2 bc 57 6e 1b bd 4d 27 8b 3a
       0.037353907 -0.027622914 -0.037947025 0.0010616571
000220 df 04 cb bc 17 c6 40 3c be af 5d bd 12 9b 96 3b
       -0.024782596 0.011765978 -0.05412268 0.0045961225
000230 d5 85 7c bd 32 88 dd bd a5 0d a6 bd 3c bb c3 bd
       -0.06165107 -0.10816993 -0.08108071 -0.095571965
000240 9c 03 7a bd 82 5f 6b bd bd 8b 39 bd 64 f3 90 bd
       -0.0610386 -0.05746413 -0.04529928 -0.07077673
000250 a8 61 77 3d 1b 8f fa bc e1 17 50 3d fe 4f cf bc
       0.060395867 -0.030585816 0.050804023 -0.025306698
000260 ac f8 15 bd 04 14 bf bd 59 84 33 bd a6 aa 9c bd
       -0.036614105 -0.093299896 -0.04382739 -0.07649736
000270 8d ba 87 3c 70 bb c7 3d bd 14 93 bd 42 2b 3f bd
       0.016568447 0.09752548 -0.0718169 -0.046672113
000280 fb cf 02 be b0 67 96 bd fe fb b4 bd b6 06 c1 bd
       -0.12774651 -0.073439956 -0.08837126 -0.09425108
000290 2e e0 00 be 2f 60 de bd 79 76 63 bd 09 c0 9e bd
       -0.12585518 -0.10858189 -0.055532906 -0.077514715
0002a0 f7 1b f1 bd 5e c2 7e bd 3a 20 32 bd b0 24 4b ba
       -0.11772912 -0.06219708 -0.043487765 -0.00077493023
0002b0 4b ba f9 bd ac e1 a1 bd 27 05 01 be b8 76 b7 bd
       -0.12193736 -0.079043716 -0.12599622 -0.08958191
0002c0 bd f4 63 bc b9 f1 fb bd 0a 2d 0c bd f6 a8 8d bd
       -0.013913331 -0.12301964 -0.03422264 -0.06916992
0002d0 fb 1f b4 bd 20 30 58 bd 8a 16 3d 3d ba e3 cc bd
       -0.08795162 -0.05278027 0.046164073 -0.10004373
0002e0 de ee c4 3b 24 59 04 be 35 02 83 bd 10 60 c9 bd
       0.0060099205 -0.1292463 -0.06396905 -0.098327756
0002f0 93 10 8e bd bc 80 f6 bb 37 e5 3c 3c 8e 9d f6 bb
       -0.06936755 -0.0075226706 0.011529258 -0.007526106
000300 37 eb 81 bd 51 ea 8a bd 22 54 84 bd dc 19 f1 bd
       -0.06343692 -0.067829736 -0.064613596 -0.117725104
000310 9f fe 5d 3d 94 b4 31 bc 1b 32 47 3d 9c 49 a7 3d
       0.054197904 -0.010846276 0.04863177 0.08168337
000320 9a 97 10 3d 66 c7 86 3d bf 10 a1 3a 82 3e 39 3d
       0.03530083 0.06581001 0.0012288316 0.045225628
000330 22 42 b7 3d a6 89 1e 3d 4c eb 8e 3d f5 3d 06 3d
       0.08948161 0.03870549 0.06978473 0.03277393
000340 bb 9a 8e 3d d2 f1 38 bd ec 90 f2 bd ca 9a a1 bd
       0.06963106 -0.045152493 -0.11844048 -0.07890852
000350 51 85 14 3d 0e a2 dc 3d 7d 97 b7 3c 89 dd 1f 3d
       0.036259953 0.10773097 0.022411102 0.03902963
000360 40 64 b0 bd 8b ab 6a bd 33 90 8b bd 74 4c 32 3d
       -0.08612871 -0.057292502 -0.06814613 0.043529943
000370 bc 15 8d 3d f9 c1 83 3d b8 55 2e bd 23 ae 5d bd
       0.06888911 0.06433482 -0.042562217 -0.054121148
000380 30 4e 36 3b f1 22 a8 bd db 05 15 bc 95 35 82 bc
       0.00278176 -0.082097895 -0.009095634 -0.01589469
000390 70 9f b3 3c fb 48 fa bb a7 06 70 bd f6 94 e8 bd
       0.021926612 -0.0076380945 -0.058600094 -0.11356537
0003a0 b4 9e ca bc a6 3b 77 3c 4e 68 85 bd 1f f5 ea bd
       -0.024733879 0.015089905 -0.06514035 -0.114725344
0003b0 1f cd 3c bd 52 e1 b4 bd 79 a7 85 bd b8 13 7e 3d
       -0.046094056 -0.08832039 -0.065260835 0.062030524
0003c0 29 cf 10 bd d9 c2 83 bd a4 ae c4 bb 1c 44 6c 3d
       -0.035353813 -0.064336486 -0.006002264 0.05768214
0003d0 53 da 6d bc 68 e6 02 3d a0 cb de 3c a3 4a 85 3b
       -0.014517385 0.031958014 0.027196705 0.0040677353
0003e0 00 98 5d bd bc a9 c1 bb 2b 81 02 be a0 93 c8 bd
       -0.054100037 -0.0059101265 -0.12744586 -0.09793782
0003f0 76 34 4d bc 2f 53 8b 3d 70 d1 df 3c 4b 0b 85 bd
       -0.012524715 0.068029754 0.027321547 -0.064962946

conv2.bias f4 [16]
000000 11 8a bb b6 20 7f bc 32 08 18 63 36 ce 0e 1d 37
       -5.5891073e-06 2.194389e-08 3.3839624e-06 9.361376e-06
000010 0f 28 cd 36 7c bc 57 b5 ab 60 d9 36 f7 a0 e1 b6
       6.1141395e-06 -8.036802e-07 6.4783576e-06 -6.7242613e-06
000020 b4 d2 2d 37 1b 43 49 b7 69 4d 4b b6 8d b4 07 b7
       1.0360662e-05 -1.1996158e-05 -3.0294416e-06 -8.088665e-06
000030 80 f1 8b b4 c9 5c 33 b7 0c fb 00 36 91 b7 26 35
       -2.6066482e-07 -1.0690835e-05 1.9219615e-06 6.2106943e-07

bn2.weight f4 [16]
000000 95 f3 3e 3f 26 af 52 3f 33 2d 8f 3f c5 4c 63 3f
       0.74590427 0.82298505 1.1185669 0.88789016
000010 33 a0 6f 3f ce 66 58 3f 00 22 8d 3f ab 0e 88 3f
       0.9360382 0.8453187 1.1026001 1.0629476
000020 35 15 98 3f 78 44 7f 3f 78 c1 5a 3f 26 f4 77 3f
       1.1881472 0.9971385 0.8545146 0.96856916
000030 7c 54 5f 3f 1f 9e 97 3f 1e c9 38 3f c9 f9 43 3f
       0.8723829 1.184513 0.7218188 0.76553017

bn2.bias f4 [16]
000000 35 3e 83 be 81 1b 49 be ca b8 08 be bc 42 51 be
       -0.25633398 -0.19639398 -0.13351741 -0.20435613
000010 47 48 68 be 47 74 7b be b4 c2 8c bd 79 92 70 be
       -0.22683822 -0.24556075 -0.06873074 -0.23493375
000020 36 1a ea bd 3b ea 62 be 8e 43 56 be ab 28 7c be
       -0.114307806 -0.22159664 -0.20924208 -0.24624889
000030 ab c3 6b be 7c cc 1f be 75 c2 9a be bd ae a4 be
       -0.2302386 -0.15605348 -0.30226484 -0.32164565

bn2.running_mean f4 [16]
000000 3b d2 93 c0 c2 1d 7a c0 5e 50 1d c0 56 7f d5 c0
       -4.619413 -3.9080663 -2.4580302 -6.671794
000010 e1 cc 3e 40 8c 00 d5 bf 0a e7 bd bf 96 0f 05 40
       2.9812548 -1.6640792 -1.4836133 2.0790763
000020 4c 6e fc bf b0 73 e6 c0 ab 40 bd bf 71 21 ca c0
       -1.972116 -7.201622 -1.478536 -6.316582
000030 04 10 93 c0 2c 70 a5 c0 87 e7 95 bf 35 35 3c c0
       -4.595705 -5.169943 -1.1711282 -2.9407475

bn2.running_var f4 [16]
000000 10 b9 14 41 ed f9 27 41 21 2b 80 41 ac 2b 7f 41
       9.295181 10.498517 16.021059 15.948162
000010 0c 3e 3a 41 a6 eb 9c 41 91 ee 79 41 7b ec 24 41
       11.640148 19.615063 15.620744 10.3077345
000020 de 57 18 41 ba f1 6c 41 c9 5d 54 41 53 ee 68 41
       9.521452 14.809015 13.272897 14.558185
000030 c3 b4 84 41 ff c2 5d 41 74 cc 13 41 f8 71 1e 41
       16.588263 13.860106 9.237415 9.902824

fc1.weight f4 [32, 16]
000000 16 16 19 3e b8 b5 2c 3e 9e 5d 2c be d6 53 45 3e
       0.14949831 0.16866195 -0.16832587 0.19270262
000010 08 b7 f7 bd 4e f7 20 3e 50 a6 da bd 48 42 84 3e
       -0.12095457 0.15719339 -0.10676253 0.2583182
000020 79 8e 1d be ca fc b6 bd ad a4 2d 3e a7 09 43 be
       -0.1538638 -0.089349344 0.1695735 -0.19046651
000030 fd 0f d1 3d 2d 46 4b be ca f0 10 be 0a ce d6 bc
       0.10208128 -0.19850989 -0.14154354 -0.026221294
000040 83 71 c9 3d 25 e9 9f 3d c0 a8 93 be 1b 9b a1 3b
       0.09836104 0.07808141 -0.28839684 0.00493182
000050 c1 51 8b 3d f0 31 a4 3e 89 9f 84 be d1 de 5e 3e
       0.06802703 0.3206935 -0.25902966 0.21764685
000060 b7 f0 af be ac c7 cf 3c 60 51 64 3d 11 25 a1 be
       -0.34363338 0.025363766 0.055741668 -0.31473592
000070 8b 88 8b bd 23 8a a8 be c9 d9 09 3e ed 75 25 be
       -0.06813153 -0.3291789 0.13461985 -0.16158266
000080 28 10 27 3e 94 60 90 bc fb e9 4e 3e 5b 65 09 3e
       0.16314757 -0.017624177 0.20206444 0.1341757
000090 e7 c7 a4 be 37 51 75 bd ec a2 90 3e 47 71 e3 bd
       -0.32183763 -0.059891906 0.282493 -0.1110559
0000a0 8e 08 9a 3e aa 45 b2 3e 33 aa 92 be a6 02 ab 3e
       0.30084652 0.34818774 -0.28645477 0.33400458
0000b0 0d 08 70 3d 22 14 ca 3e b2 fe 38 bd 8c 2e 36 bd
       0.058601428 0.39468485 -0.04516477 -0.044477984
0000c0 74 6b 87 bd 0a ec 54 3d 1d f9 02 3d a4 3d 3d 3d
       -0.06612292 0.051982917 0.031975854 0.046201363
0000d0 70 52 43 3e 1d f8 36 bd c5 d1 89 be 7b 42 07 be
       0.19074416 -0.044670213 -0.26917854 -0.13208954
0000e0 14 a4 9f be 93 95 e4 3d ec 74 44 be 70 ef 0f 3d
       -0.3117987 0.111613415 -0.19185227 0.035140455
0000f0 80 ce cc bd 99 bf e5 3d 6b 82 a4 3d 72 f7 9e bd
       -0.10000324 0.11218185 0.08032688 -0.0776204
000100 bc ab 03 3e f0 05 4c be 8e 3e 1a be e8 2b 03 be
       0.1285848 -0.1992414 -0.15062925 -0.12809718
000110 47 16 0e be 33 cf 29 be 06 84 30 b5 53 ab 73 bb
       -0.13875686 -0.16582946 -6.575723e-07 -0.0037180975
000120 35 43 57 be e6 eb 0a bc 76 25 48 3d 54 fd 29 bd
       -0.21021731 -0.008479094 0.04886385 -0.04150136
000130 79 81 01 3b a5 02 3f be 2a 68 6a 3d 9b 27 d8 bc
       0.001976101 -0.18653353 0.057228245 -0.026386073
000140 bc 37 c1 bd c8 b5 95 bd 81 d3 05 bf c2 b1 11 be
       -0.094344586 -0.07310063 -0.52275854 -0.14227965
000150 a4 bf 88 3e d4 2f 5f 3e f2 af 96 bd 42 a7 4b 3e
       0.2670871 0.21795589 -0.07357778 0.19888023
000160 15 52 d0 be df 1b 41 bd e8 77 26 3e e3 e9 3f 3d
       -0.40687624 -0.04714572 0.16256678 0.04685391
000170 68 78 cd bd d8 94 c8 be 3d 24 ee bb 96 60 89 3d
       -0.10032731 -0.3917606 -0.0072675035 0.067078754
000180 3c 33 8f bc 0e 99 3a bd d7 a0 86 3c 08 e7 a5 bc
       -0.017480485 -0.04555612 0.016434116 -0.020251766
000190 eb d7 dd bd e9 07 85 bd a6 18 12 bd bc 27 ad bd
       -0.10832199 -0.06495649 -0.035668038 -0.08454844
0001a0 9c 00 b1 3b b0 8f 0a bd 85 72 4a bd a3 b9 db bc
       0.005401684 -0.033828437 -0.04942562 -0.026821917
0001b0 77 03 23 bd ef e7 34 bc 9a 9e 46 bd ce 8f 19 bc
       -0.039798226 -0.011041625 -0.048491098 -0.009372665
0001c0 e3 61 69 3d 86 21 47 3e 60 56 87 3e 31 a0 a7 3d
       0.056978118 0.19446382 0.26433086 0.08184851
0001d0 58 88 51 be b3 84 19 3d ae 01 0f 3e 5c 97 85 be
       -0.20462167 0.037480067 0.13965484 -0.2609204
0001e0 00 61 87 3d 98 18 b1 3e 2f 61 ba bd 37 ad 83 3e
       0.06610298 0.34589076 -0.091005675 0.2571809
0001f0 aa ce 40 3e 35 4a 84 3e cf 46 5b be 0c 72 3c 3c
       0.18828836 0.25837865 -0.2141373 0.0115018
000200 60 f1 90 bc 91 c8 90 bd ac a0 1c 3e e9 3e 02 be
       -0.017693222 -0.07069505 0.15295666 -0.12719311
000210 81 ae b2 bc 4f 7c 22 be c3 ff 5b 3d 59 d3 f5 3d
       -0.021811726 -0.15867732 0.05371071 0.12003202
000220 42 c6 2d 3d c2 eb 6d 3e d5 76 0f 3e 4a 53 28 3e
       0.0424254 0.23234466 0.14010175 0.16438022
000230 80 28 21 be c3 84 82 3d 66 85 f1 bc 6a 2e 45 3e
       -0.15738106 0.063729785 -0.029482555 0.19255987
000240 19 90 02 3d 03 a4 10 3e b7 a2 ec 3d dd 96 9b be
       0.031875703 0.14125066 0.11554473 -0.30388537
000250 f6 5b 85 3d 73 76 02 be 1b 39 6d bd 3a fb a0 be
       0.06511681 -0.12740497 -0.05791579 -0.3144167
000260 63 33 70 be 10 ee f8 bd b0 60 a9 bc 77 ad fb bc
       -0.23457102 -0.12154782 -0.020675987 -0.030722363
000270 19 9a 19 3d 42 64 b3 bd 62 40 07 3d b5 f5 10 3d
       0.037500475 -0.08759357 0.033020385 0.035390574
000280 78 c5 b0 3d d2 df 48 3e 2c 49 d5 3c 9d 32 34 3e
       0.08631414 0.1961663 0.026035868 0.17597432
000290 5d f1 81 be ff 49 75 be b6 04 98 3d b9 35 e2 bc
       -0.25379458 -0.23954009 0.074227735 -0.027613508
0002a0 a0 90 b2 3e e3 de 87 3e 0b 65 40 bd 75 04 6f 3d
       0.34875965 0.26537237 -0.046971362 0.05835386
0002b0 09 33 db 3d c1 c4 9e 3e 9b 83 18 be 24 7c 1a 3e
       0.107030936 0.31009486 -0.14893954 0.15086418
0002c0 82 a2 7a 3e 78 87 21 3d 17 59 a9 3e f3 92 79 3e
       0.24476054 0.039435834 0.33075783 0.24372463
0002d0 f3 e0 81 be 5d 1d af bd 3d cb 90 3e 43 67 4c be
       -0.25366935 -0.085505225 0.28280059 -0.19961266
0002e0 3e 1b 0d 3e 84 be 2b 3b 69 a4 6e 3c f0 cf 95 3e
       0.13779923 0.0026206085 0.014565566 0.29260206
0002f0 66 b8 35 3e 4b 6e 08 3e c7 ad 2a be e4 ae 59 bd
       0.17746124 0.13323323 -0.16667853 -0.053145304
000300 cf af 5d bd 43 7a 2a bd 2b 8d bd bb 93 f9 2e bd
       -0.054122742 -0.041620504 -0.005784651 -0.04271848
000310 dd fb a3 3d 54 dc 0a 3d a1 c1 21 be f6 8d a4 bd
       0.080070235 0.033901528 -0.1579652 -0.080348894
000320 28 25 b0 bd 11 80 fd bd ba 7f e8 bd c0 a2 49 bd
       -0.08600837 -0.12377942 -0.11352487 -0.049227476
000330 af 64 d5 bd 78 fb a3 bc f5 eb 15 be 16 5e a6 3c
       -0.104195945 -0.02001737 -0.14640792 0.020308536
000340 a9 d7 2c bb e1 e9 f7 bc ce 94 2b 35 79 4c 9c bb
       -0.002637366 -0.03026289 6.3919003e-07 -0.0047698584
000350 71 37 10 bd f8 7d b7 bc a1 83 b2 35 ae 3b 18 bd
       -0.035209123 -0.022398934 1.3300343e-06 -0.03716629
000360 63 43 d5 b5 3e 99 e9 ba 05 43 c3 bb ff 0c a4 35
       -1.5889349e-06 -0.0017822159 -0.005958917 1.2222735e-06
000370 38 dd 76 bc 8a 57 01 b5 2c da bc bc 01 af cd bb
       -0.015067391 -4.818363e-07 -0.023053251 -0.0062769656
000380 d1 2e 27 3e 86 0b 0b be 3d 6e e7 bd 4c 5d be 3d
       0.16326453 -0.13578615 -0.11300323 0.09295139
000390 9a 65 87 be 8c 0d d2 3d 77 e4 f3 bd af 8c 01 bd
       -0.26444703 0.1025649 -0.119088106 -0.031628307
0003a0 52 34 90 bd bd 88 52 bd c0 49 2c be 6a 17 82 3d
       -0.07041229 -0.051399935 -0.16825008 0.06352122
0003b0 d3 40 0b 3e e8 59 41 be 31 a6 18 3b f3 f9 0b be
       0.13598947 -0.18881953 0.0023292417 -0.13669567
0003c0 91 5a 35 bc 23 58 ca 3d 8a 77 60 bd 73 c0 b3 bd
       -0.011068956 0.09880092 -0.0548015 -0.08776941
0003d0 27 36 ed 3d b3 a4 de bd 2c 4a 0a 3e 31 99 89 be
       0.11582594 -0.10871258 0.13504857 -0.26874688
0003e0 c6 fd 19 be b7 59 eb bd eb 4a b9 bd 4d 45 2d bd
       -0.15038213 -0.11491721 -0.090474926 -0.04230242
0003f0 05 c6 63 be 01 75 81 bd 46 4e 14 3d f7 c4 4c be
       -0.22243507 -0.06321145 0.03620746 -0.19997011

fc1.bias f4 [32]
000000 21 e8 b8 bc d3 50 92 bd cd 42 13 3e 53 5b 90 3d
       -0.022571625 -0.07144322 0.14380951 0.07048669
000010 2d c5 0c 3d bd 6a 20 3e ba 6a 6a bd 39 3e 88 3d
       0.03436773 0.15665717 -0.05723069 0.06652493
000020 cb b7 0b 3d 34 54 db bd 30 41 2b be 9c 60 fe 3c
       0.034110826 -0.1070942 -0.16724086 0.031051926
000030 a5 82 79 bd 7d 78 b5 bc 32 b0 37 3c 63 96 49 3c
       -0.060915608 -0.02215218 0.011211442 0.012303921
000040 da 6f 8e 3d 65 0b 36 bd 92 04 c5 3d ba 8d f9 bd
       0.06954928 -0.04444446 0.09620012 -0.12185235
000050 9c ac 8a 3d 2b 9b 2f be 63 08 64 bd f2 a5 10 bb
       0.06771204 -0.17149036 -0.05567206 -0.0022071567
000060 c5 55 46 be fe a3 8e bd 9e 65 86 3e 0a aa c5 bb
       -0.19368656 -0.06964873 0.26249403 -0.006032233
000070 29 5c a9 37 74 5b ae 3d 16 4d 04 bd 47 ac 76 bd
       2.0189285e-05 0.08513537 -0.032300077 -0.06022289

fc2.weight f4 [2, 32]
000000 8d dd de 3a 7c 45 27 3e e8 7b 8a be f8 b8 d9 3d
       0.0017003283 0.163351 -0.27047658 0.10630983
000010 42 e6 80 3d 52 6c 40 3e 31 56 6b bc ca 05 67 be
       0.06293918 0.18791321 -0.014363811 -0.22560802
000020 d6 d2 e3 bd 15 bb 01 bd 12 9f 7b 3b 5b 13 8a be
       -0.11124198 -0.031672556 0.0038394374 -0.26967892
000030 a6 ff 76 3d e2 17 d8 33 32 a1 8a 3d fa bd 98 3d
       0.0603024 1.0062628e-07 0.06769027 0.0745811
000040 2f 54 27 3e 7d 9a 89 ba 5e ef dd 3d 41 05 19 3d
       0.16340707 -0.0010498312 0.10836671 0.037358526
000050 b4 ad 18 be c9 6d 69 bd cd fa 3f bd 25 a4 21 3c
       -0.14910012 -0.056989465 -0.04687004 0.009865795
000060 7a 38 c2 3d 9a d5 06 3e 21 8b 94 be 6a 6f 1e be
       0.09483428 0.1316742 -0.29012397 -0.15472189
000070 3b f1 55 3b 5f 78 a9 bd f4 09 cc 3c e5 2d b0 bd
       0.0032645005 -0.08274912 0.02490709 -0.08602504
000080 c8 4a 38 be e1 81 40 be 27 da 08 3e 71 6d 63 3c
       -0.17997277 -0.18799545 0.13364469 0.013881073
000090 a8 6c 8a bd 8a e0 72 be e2 8c a5 3c ba 34 75 3e
       -0.06759006 -0.23718467 0.02020878 0.23945895
0000a0 b7 83 f4 bd 58 6f 14 bd 8d 3c 86 3e 39 f4 59 3e
       -0.11939185 -0.036239 0.26218072 0.2128457
0000b0 c8 99 93 3d e8 f1 b2 b5 f9 a6 d1 3d ce 65 10 3e
       0.07207066 -1.3332437e-06 0.10236926 0.14101335
0000c0 5d a9 29 be 20 9b 9c bd f5 62 fa bc ad 6e 19 bd
       -0.16568513 -0.07646775 -0.030564765 -0.037459064
0000d0 88 9a 7c 3e 42 82 c3 3b 3f 9c 4a bd ec 66 6f bc
       0.24668324 0.0059664557 -0.049465414 -0.014611941
0000e0 e5 97 27 bc ae 10 02 be 85 16 42 3e 89 02 13 3e
       -0.010229086 -0.12701675 0.18953903 0.14356436
0000f0 2c 26 ca ba 21 30 10 3e 80 6e cf bc 39 2a 77 3e
       -0.0015422753 0.1408086 -0.025321245 0.241372

fc2.bias f4 [2]
000000 7e f7 12 3e ce 7b dd bd
       0.14352223 -0.108146295
